physical_setup/package_classifier.pth (torch, 5032 bytes, 4 tensors)

fc1.weight f4 [64, 4]
000000 74 1d f5 be b0 64 75 3f b4 f9 02 bf c3 ba e6 bf
       -0.47874033 0.9585676 -0.51162267 -1.8025745
000010 f2 0c 5d 3f 95 10 1c 40 27 70 96 bf 2e 19 ca 3f
       0.8634788 2.438512 -1.1752976 1.5788934
000020 9c 0c 08 bf 3d f3 d9 3d 6e 46 ee be ad 09 25 40
       -0.5314424 0.10642097 -0.4653811 2.5787156
000030 42 7a e1 3e 51 14 be be 59 3e f0 bf a0 50 d3 3f
       0.44038588 -0.37124875 -1.8769027 1.650898
000040 f4 20 7f 3e 31 43 3d bf f5 54 22 3f 45 7d 3c 3f
       0.24914914 -0.7393065 0.63410884 0.73628646
000050 1a 61 84 3f 9b 1e 05 40 2f 50 f4 be f6 00 43 3f
       1.0342133 2.079993 -0.47717425 0.7617334
000060 a1 92 72 3f cf a2 e3 3e 74 a4 84 3e d9 50 e9 bf
       0.9475499 0.4446015 0.25906718 -1.8227798
000070 3d a9 81 be d2 46 87 bf e4 aa 12 bf 37 ba 9c 3e
       -0.2532443 -1.0568488 -0.5729201 0.3061082
000080 0a 93 10 3e 1e b8 ed 3f 96 86 8c be 7a b6 d2 3e
       0.14118591 1.8571813 -0.2744643 0.41154844
000090 86 e1 15 3e 87 2c 61 bf ef 33 ec bf 27 b1 21 40
       0.14636812 -0.8795857 -1.8453349 2.5264375
0000a0 4c e6 a2 3f 9c 1d bd be 12 18 6e bf ff 79 55 3f
       1.2726531 -0.36936653 -0.9300548 0.83389276
0000b0 46 93 25 40 fe 3b 36 bf a9 d5 a7 bf c9 02 c6 3e
       2.5871139 -0.7118529 -1.3112079 0.38674
0000c0 79 74 96 bf b5 59 0c bf 4e ae 82 3f e1 a7 ea 3f
       -1.1754295 -0.5482438 1.0209444 1.8332483
0000d0 dd e5 2e 3e c0 e6 bb 3e 3d f2 6b 3e 96 3e f7 bf
       0.17079873 0.36699486 0.23041625 -1.9315975
0000e0 03 2f 07 3f d2 21 14 bf af 55 45 bf 78 4d 48 3f
       0.5280611 -0.57864106 -0.7708387 0.7824321
0000f0 8d c6 35 3f 44 e9 fc 3f 70 b5 15 bf 9e 7a fe 38
       0.7100609 1.9758687 -0.58479977 0.00012134503
000100 36 88 7e 3f cb be 25 40 41 1a 68 be f7 71 2c 3f
       0.9942659 2.58977 -0.22666265 0.67361397
000110 c6 6f bf 3d d6 ec b2 3e a1 54 a3 bf 0f 05 17 bf
       0.09347491 0.34946316 -1.2760202 -0.58992094
000120 6e a1 ac 3c 47 9e c2 bf ec 36 d0 3f c2 6d 37 3f
       0.02107307 -1.5204552 1.6266761 0.7165185
000130 c4 33 e4 3e aa a7 c9 be 48 32 dd be 31 56 8e 3f
       0.44570744 -0.3938573 -0.43202424 1.1120054
000140 62 7e bd 3f 11 07 8d 3c 57 0b 51 3e 6c ab a5 bf
       1.4804194 0.017215284 0.20414482 -1.2942939
000150 4e 59 fe 3e 0c c5 01 40 c7 f7 89 bf c6 2d 25 40
       0.4967751 2.0276518 -1.0778741 2.5809188
000160 90 fd b6 3f 71 35 1c 40 c7 63 5d bf 65 b3 a1 3e
       1.4296131 2.4407618 -0.86480373 0.3158218
000170 c0 9b be 3f 16 96 21 40 46 2f 80 bf 08 86 59 3f
       1.4891281 2.5247855 -1.0014427 0.8497014
000180 a8 00 df be 90 b8 e2 be 4f 09 33 bf ae a5 03 3f
       -0.43555188 -0.44281435 -0.6993608 0.5142468
000190 3b 23 1c 3f d9 b6 4d bf 4f cf 41 bf 8c 3a 09 40
       0.6099126 -0.8035713 -0.7570695 2.1441984
0001a0 ee 1e 85 3e 06 73 b8 bd 88 03 84 bf 96 4c f7 3e
       0.2600016 -0.09006314 -1.0313578 0.48300618
0001b0 aa 7a 8a 3e aa b0 8d bf 6f 5c 91 bf d2 cf 38 3f
       0.2704671 -1.1069539 -1.1356333 0.7219211
0001c0 07 d7 0a bd b0 56 f5 3d 6d 9a b1 bd e0 71 93 bd
       -0.033896472 0.11979425 -0.086720325 -0.07199454
0001d0 f8 24 88 bd db c6 d4 bd 95 2f 73 bf 5f 60 21 40
       -0.06647676 -0.10389491 -0.9499448 2.521507
0001e0 9b 75 a9 3d 87 48 a7 3f 23 dd fc be c1 aa 6d 40
       0.082743846 1.3069009 -0.49387464 3.713547
0001f0 bc 16 a4 3e fd 0f 55 3f 06 39 15 be 1d 5a bd bf
       0.32048595 0.8322752 -0.14572534 -1.4793125
000200 d7 0e 08 3f 81 12 db 3d e0 24 3e bf f7 64 8a bf
       0.53147644 0.10696889 -0.74275017 -1.0812062
000210 d5 f1 45 40 46 55 78 40 bf e9 9f c0 80 24 d9 40
       3.0928853 3.8802047 -4.9972835 6.7857056
000220 ef ee 0e bf ae 75 57 bf ee ae 72 3e b9 ed b2 3e
       -0.55833334 -0.8416394 0.23699543 0.34946993
000230 76 4c 3b 3e 1b 13 e1 3f 74 7a c5 be 3c 3e 3f 3e
       0.18290886 1.7583956 -0.38569987 0.18676084
000240 a1 1f 84 bf e7 31 81 bf 2c b8 e3 3d be ae 9d 3f
       -1.0322152 -1.0093354 0.11119112 1.2318952
000250 50 10 31 3f 2d f2 f0 3f 37 fb d6 be fe 01 34 3f
       0.69165516 1.8823906 -0.41988537 0.7031554
000260 9b 07 61 be aa d0 ad 3e 59 b1 58 bf e3 0b 00 3f
       -0.21975558 0.3394826 -0.8464561 0.5001814
000270 57 10 39 40 9e b9 61 40 2d ae d4 c0 56 2d ee 40
       2.8916223 3.5269542 -6.6462617 7.443034
000280 01 63 0c 3f f8 0e b2 bc 2d 55 48 3f 1b 3b b3 bf
       0.5483857 -0.021735653 0.7825497 -1.4002413
000290 5a ea b2 be bb 79 61 3e 46 92 43 3f 8c 30 0d c0
       -0.3494442 0.22019093 0.7639507 -2.206088
0002a0 86 0b 6f be e8 78 04 40 da a6 92 bf a8 97 6e 40
       -0.2334424 2.0698795 -1.1457169 3.7280064
0002b0 8a 3d c5 bf 97 ca 54 bc a1 55 a8 bf 74 24 8c 3f
       -1.5409405 -0.012987754 -1.3151132 1.0948625
0002c0 1c 40 73 3f c7 00 a5 3e d2 c1 86 3e 2f a9 b6 bf
       0.950197 0.32227156 0.26319748 -1.4270381
0002d0 ad d0 e0 be 3a ad 18 40 28 5c da bf 43 bc 5f 40
       -0.43909207 2.385573 -1.7059374 3.4958656
0002e0 49 3d 5b 40 7b 17 49 bf 22 a5 3d 3f 5c 2e c8 3d
       3.4256155 -0.78551453 0.740801 0.09774467
0002f0 f9 f8 3b bf e7 4d 5c bf d2 85 53 bf bb 57 32 3f
       -0.7342678 -0.8605637 -0.8262607 0.69665116
000300 54 12 81 bf ff d5 de 3e 82 80 58 be d5 c2 35 c0
       -1.0083718 0.4352264 -0.21142772 -2.8400166
000310 7d 57 b8 be d5 c4 18 3d 8b 83 f7 be f9 33 dd bf
       -0.36004248 0.03729709 -0.48342547 -1.7281486
000320 13 aa 6b 3e 5a 90 56 bf 3c ba 32 bf 78 24 9a 3f
       0.23014097 -0.83814013 -0.6981542 1.2042379
000330 e2 a5 c0 3f ce 83 10 40 52 0e 07 c0 b1 b4 0d 3f
       1.5050623 2.2580447 -2.110249 0.5535384
000340 6b 73 4c 3f a5 0f 2c 3d 4e 9a 0d c0 3d 05 93 3f
       0.79863614 0.042007107 -2.212543 1.1485974
000350 14 a5 b0 3e d2 7e ef 3e ad 24 0d 3f ce 4d a3 bf
       0.34500945 0.46776444 0.5513409 -1.2758119
000360 f7 b0 86 3f 1a d7 9e be c5 7d 33 3e 3b 1a 4d bf
       1.0522755 -0.31023484 0.17528446 -0.8011815
000370 02 0b 64 3e 0c b8 03 3e 03 53 14 be e7 d7 f4 bf
       0.22269824 0.12863177 -0.14484791 -1.9128388
000380 3d 4c 58 c0 82 0e 8e bf ad 35 d7 bf 61 68 12 3c
       -3.3796532 -1.1098177 -1.6813256 0.008936019
000390 f4 bb 05 bf e7 bd 3b 40 0e eb b2 bf 92 c5 77 40
       -0.5223992 2.9334657 -1.3977983 3.8714337
0003a0 36 07 f1 3f 4e 36 23 bf 36 eb b2 bf dd df 98 3e
       1.8830326 -0.6375474 -1.3978031 0.29858294
0003b0 50 e2 0c 3e cd fb 5d be 17 84 b0 3d 20 b5 57 3f
       0.13758206 -0.21678086 0.08618944 0.8426075
0003c0 d0 52 6f 3e 02 db 61 bf bf 16 2a be e2 70 57 3f
       0.23371434 -0.88224804 -0.1661024 0.8415662
0003d0 13 bd 8e bf 34 12 99 bf a5 e7 b9 be 1a 88 53 3f
       -1.1151451 -1.195868 -0.36309543 0.8262955
0003e0 1c 1c 87 3f 48 1e 04 40 d6 0e 05 bf d5 25 79 3f
       1.0555453 2.0643482 -0.5197576 0.9732335
0003f0 8d 26 2d 3f 14 0c f6 3d e8 19 c0 bf e2 64 44 bf
       0.6763695 0.120140225 -1.5007906 -0.76716435

fc1.bias f4 [64]
000000 c7 44 c4 be 80 cf 87 bf 58 25 df 3f 56 8f ac 3f
       -0.38333723 -1.0610199 1.7433271 1.3481243
000010 72 c2 d3 be 67 79 fb bf 82 5e 83 bf 42 1c 9e 3e
       -0.41359288 -1.9646424 -1.0263216 0.30880934
000020 15 46 11 c0 1c e6 c0 3f 5a 46 ce 3f 72 10 c1 3f
       -2.2699025 1.5070224 1.611522 1.5083144
000030 81 22 52 3f 12 cb b8 bf 9c 84 9b 3f 47 80 0c c0
       0.820839 -1.4436972 1.2149844 -2.1953294
000040 a9 70 cd bf 96 cb 83 3f 2c a3 b1 bd b3 98 99 3f
       -1.6050006 1.0296504 -0.08673701 1.1999725
000050 c9 e2 57 bf 83 64 47 bf 14 f7 c7 bf 1b e2 c0 bf
       -0.8433042 -0.77887744 -1.5622277 -1.5069002
000060 da 18 92 3f 8f d0 08 40 fe c6 d5 3f 00 53 db 3f
       1.1413834 2.1377294 1.6701353 1.7134705
000070 0e 3c ad be a1 19 e0 3f 21 13 54 bf 9b 75 b5 be
       -0.3383488 1.7507821 -0.8284169 -0.35441288
000080 be 21 43 be f0 a3 df 3f 78 ba 27 3f 1c 66 08 c0
       -0.1905584 1.7471905 0.65518904 -2.1312323
000090 f7 56 8f 3f c4 e8 a7 bf 58 d3 bb 3f c6 2b 00 40
       1.1198415 -1.311791 1.4673872 2.0026717
0000a0 e6 bc a6 bf 3d c5 b9 bf 2e b4 3d bf 31 db cc 3f
       -1.3026397 -1.4513317 -0.7410306 1.6004392
0000b0 cd 0c 6c bf e5 52 3c be 9d b9 0e 3e 19 3f 78 3f
       -0.9220703 -0.18390997 0.13937993 0.9697128
0000c0 57 1e be be 28 fb b7 bf a8 17 04 40 f1 9a 18 bf
       -0.37132522 -1.4373522 2.0639439 -0.5961142
0000d0 23 83 36 40 ae 60 87 bf b9 73 8a bf 64 3b b5 bf
       2.851754 -1.0576379 -1.0816566 -1.415875
0000e0 8e ce 60 3e d8 1d 0c be 93 c9 b7 3f 96 0e 8a 3f
       0.21953794 -0.1368326 1.435839 1.0785701
0000f0 12 11 f4 3f 27 8e 87 3f 51 d8 b0 bf 2f 28 7d 3f
       1.906771 1.0590256 -1.3816015 0.9888944

fc2.weight f4 [6, 64]
000000 1a 0f 06 c1 61 35 22 bf 51 45 e1 bd 31 b4 92 3e
       -8.378687 -0.633627 -0.10999549 0.286531
000010 8c 5c 72 c0 64 ef c7 bf 56 81 7b c0 16 f5 6a c1
       -3.7868986 -1.5619931 -3.929769 -14.684835
000020 61 9d 76 c0 2b 4b 31 3f f4 15 c2 3e 6d fc 48 3e
       -3.8533556 0.6925532 0.37907374 0.19627543
000030 8c c8 1c bf 39 b7 c1 be df b7 a5 3e d4 52 09 c0
       -0.6124351 -0.378351 0.32366845 -2.1456804
000040 06 d5 98 bf d3 c1 02 3e c9 5c 2f c1 30 b8 41 3c
       -1.194001 0.1276925 -10.960153 0.011823699
000050 88 0f 12 c0 3f f9 67 be 5c f6 73 bf a5 ee 3b bf
       -2.282198 -0.22653674 -0.9529779 -0.7341102
000060 c8 9f 01 40 4a f9 96 3e 1f b1 35 3e 50 7b a5 3f
       2.0253773 0.29487067 0.17743348 1.2928257
000070 38 b7 11 bd 77 28 18 3f dc 17 a2 3d f6 d1 7b c0
       -0.03557512 0.59436744 0.07914707 -3.93469
000080 7c 60 35 c0 78 7b 0e 3e 47 a3 93 c1 3e b9 6f c0
       -2.834014 0.13914287 -18.454725 -3.7456813
000090 24 23 32 40 05 f0 c1 bf 9f 5b 85 bf db 11 8e 3e
       2.7833948 -1.5151373 -1.0418586 0.27747998
0000a0 77 74 a9 bf e7 f2 ee bd db 59 4b bf 4c 77 80 bc
       -1.3238667 -0.11667424 -0.79433984 -0.015681885
0000b0 56 44 ee bf 94 f9 4b bf 21 8e 85 c0 e9 d1 3f 40
       -1.8614604 -0.796777 -4.1735997 2.997187
0000c0 6f 41 6c c1 ef 3d 81 be 97 b0 26 3f 3f 68 a2 be
       -14.765975 -0.25242564 0.65113205 -0.31720158
0000d0 45 72 d4 3d ce 1f bf bf e5 36 cd bf 9e 74 36 bf
       0.10373358 -1.4931581 -1.6032377 -0.71271694
0000e0 52 db 77 40 32 0c 7e bf 71 68 ba 3e 77 6b b8 bf
       3.8727612 -0.9923736 0.36407807 -1.4407796
0000f0 1a 54 7c 3f 40 6e 7c 40 6e 1e 5c bf 59 5d 0a bf
       0.9856583 3.9442291 -0.8598393 -0.5404869
000100 90 46 36 c0 4d f6 42 40 3a 04 b8 41 bd aa 46 41
       -2.8480568 3.046283 23.002064 12.416684
000110 2e 69 be c0 ca 09 5b 40 f2 07 be c0 c2 a2 a9 bf
       -5.9503393 3.4224725 -5.93847 -1.3252795
000120 e1 06 57 40 9d dd 93 41 ee ae 22 bf 87 ad 01 bf
       3.3597949 18.48321 -0.6354817 -0.50655407
000130 2e de ce 40 87 c4 10 c1 bf 01 1d bf d5 0e 60 40
       6.4646215 -9.04798 -0.6133079 3.5009053
000140 09 1b 6b 40 63 fd 45 bf 74 83 32 c0 89 1e 36 bf
       3.673525 -0.7733976 -2.7892733 -0.7114034
000150 fa 36 65 bd 35 10 66 3f 89 e9 73 40 4f f4 69 40
       -0.055960633 0.8986848 3.8111289 3.6555364
000160 ab ba 6f bf 38 ae 06 3f 18 85 01 bf 79 e0 58 bf
       -0.9364421 0.52609587 -0.5059371 -0.8471752
000170 f0 a9 88 bd 84 87 a3 41 ab b8 b6 bf 78 ee 5c c0
       -0.06673038 20.44117 -1.4275106 -3.452055
000180 56 41 85 c0 d5 50 c5 c0 4e a1 b9 bf 8a 3f 62 40
       -4.1642256 -6.166117 -1.4502351 3.535128
000190 16 1e 66 be 78 5f 5d 40 59 48 76 bf c7 f1 cd c0
       -0.22472414 3.458952 -0.96204144 -6.435764
0001a0 c1 9c 8d c1 b7 79 09 c1 98 4a 35 c1 3d 0b 59 40
       -17.70154 -8.592216 -11.330711 3.391311
0001b0 b0 e5 30 40 e3 ad 25 c1 36 b0 fa c0 55 03 f4 be
       2.764019 -10.354953 -7.83401 -0.47658792
0001c0 e9 fc 57 c0 13 88 81 be 02 27 53 be a4 7b 78 40
       -3.3748114 -0.2529913 -0.20620349 3.8825464
0001d0 38 cb a0 3f 92 c2 8a 3f e0 fa 8d c0 04 61 e5 c0
       1.2562017 1.0840628 -4.4368744 -7.1680927
0001e0 67 41 08 40 16 51 5b c1 98 d5 65 bd 78 9c 87 bf
       2.1289918 -13.707296 -0.056111902 -1.0594625
0001f0 3c 06 8a bf 32 4c dd be 10 f1 46 40 c0 9b 63 bf
       -1.0783153 -0.43222195 3.1084633 -0.8890953
000200 8a a2 03 c2 ab 86 4f c1 d6 d8 88 40 d1 6c 8d 40
       -32.90873 -12.970378 4.276469 4.4195333
000210 bf 96 ab c1 8f 6f 1b c1 58 b4 c0 c1 8d df 62 c0
       -21.448606 -9.714736 -24.088058 -3.5448945
000220 33 e6 c9 be 92 2f 83 40 f2 fb 55 3f 2e 31 a6 3f
       -0.3943344 4.099557 0.83587563 1.2983758
000230 37 90 21 c1 15 d8 f6 bd 65 9e 87 3f e8 6b 92 c0
       -10.097709 -0.12052933 1.0595213 -4.575672
000240 1a e5 41 c1 7d c8 02 40 b0 92 d6 c1 76 4b c7 3f
       -12.118433 2.0434868 -26.821625 1.5569904
000250 bd 09 87 c1 1d 8d 57 c1 06 e7 37 c1 b6 54 41 c1
       -16.879755 -13.4719515 -11.493902 -12.083181
000260 18 1e 95 3c e4 a6 c6 3f 13 9d e9 3f 4b 12 07 3f
       0.018202826 1.5519681 1.825106 0.5276229
000270 08 04 8c bd da 77 89 40 3a 50 4f c1 2e b1 33 c1
       -0.068367064 4.2958803 -12.957087 -11.230757
000280 a4 78 d4 c0 bb d8 43 41 cb 71 af c0 f8 f0 3b bd
       -6.6397266 12.240413 -5.4826407 -0.045884103
000290 c4 65 05 c0 53 eb fe c0 97 36 86 3f 65 0a 39 41
       -2.0843363 -7.966226 1.048541 11.565038
0002a0 32 f4 f3 be aa 07 72 bf 13 d5 77 c1 f2 35 59 be
       -0.47647244 -0.94542944 -15.48952 -0.21211985
0002b0 51 26 98 c0 54 23 6a c1 20 79 83 c0 86 29 cd be
       -4.7546773 -14.633625 -4.108536 -0.40070742
0002c0 28 78 2c c2 6e 81 f2 be ca ea 7d 3f 2d cb 5a c1
       -43.11734 -0.47364372 0.99186385 -13.674603
0002d0 0a d1 20 40 25 7e b3 be 46 88 66 c1 e5 2e 32 bf
       2.5127587 -0.35057178 -14.40827 -0.69602805
0002e0 8a 8c 35 c1 14 30 7b c1 13 09 c8 3f 77 9d 85 bf
       -11.346811 -15.699238 1.5627769 -1.043868
0002f0 15 6e d8 be 4d 39 10 c0 8e 62 26 c1 d7 20 88 3f
       -0.42271486 -2.2534974 -10.399061 1.0635022
000300 d8 38 7d be 1a a6 01 40 d7 37 05 3f 04 51 b6 bf
       -0.24728715 2.025763 0.5203833 -1.4243474
000310 b9 6e 3a be d8 17 9a 40 31 66 95 c0 e4 12 0d bf
       -0.182063 4.8154106 -4.6687245 -0.5510695
000320 7b 9f e4 40 7a 22 27 bf 68 99 56 c0 6c 32 59 c0
       7.144468 -0.6528698 -3.3531132 -3.3937025
000330 ea 64 47 3f 1d fa e0 be 24 16 54 c0 14 85 f8 40
       0.7788836 -0.4394082 -3.3138514 7.766245
000340 75 09 8e 40 a0 2f 0a c0 83 fc 8a be 25 bd 52 c0
       4.4386544 -2.1591568 -0.27145776 -3.2927945
000350 3d 87 a5 c0 42 87 03 40 59 d4 59 40 e0 7e 3a 40
       -5.1727586 2.0551305 3.4035857 2.9139938
000360 91 b7 86 c0 40 5e 31 bf 2f d6 f8 bf 32 94 8d c0
       -4.209908 -0.6928444 -1.9440364 -4.4243402
000370 1a 89 d5 bd 7c 8f 13 3e 77 28 14 40 ea 0e 92 c0
       -0.10426541 0.14410204 2.3149698 -4.5643206
000380 f3 31 b2 c0 6f 5b d6 3e ba 38 5c be f5 63 da 40
       -5.5685973 0.41866633 -0.21506014 6.824702
000390 13 3d aa c0 ec 1a 3a 40 e7 83 05 c1 e2 94 37 3e
       -5.3199553 2.9078932 -8.344703 0.17927888
0003a0 81 ff 06 c0 49 eb 18 be 9f 6c d7 3f 00 fd a9 3d
       -2.1093447 -0.14933504 1.6830024 0.08300209
0003b0 22 f5 02 c1 2e 9f ce 3f 6d f2 62 c1 35 d2 97 c0
       -8.184847 1.6142328 -14.184186 -4.74441
0003c0 cb 44 50 be 0d b8 f7 bd 80 d1 d0 bf 78 c9 b5 3f
       -0.20338742 -0.12095652 -1.6313934 1.4202108
0003d0 e0 38 45 bf a4 3b 69 c0 1a 6a 8b c0 5b f7 1d bf
       -0.7703991 -3.6442652 -4.356702 -0.6170556
0003e0 5d 33 93 c0 92 86 e4 3f 13 58 24 c0 67 ac f3 c0
       -4.60002 1.7853568 -2.5678756 -7.614795
0003f0 22 3d 97 c0 17 fd dc c0 a2 a0 57 40 75 74 af c0
       -4.7262125 -6.9058948 3.3691792 -5.482966

fc2.bias f4 [6]
000000 c1 34 f0 3e c9 ca 75 bf 9e de c6 3d 1e a1 f3 bf
       0.46915248 -0.9601255 0.097104296 -1.9033544
000010 5b 90 c6 3e 77 a6 5c bf
       0.3878201 -0.86191505
